data.pth (torch, 10783 bytes, 6 tensors)

l1.weight f4 [8, 147]
00000000: b2cf c13e ff0c 2c3f 24e0 8ebd 2c07 823f
00000010: b026 42bf d708 48bf 2b9c 2a3f 5a47 1cbf
00000020: 2b4a 8d3f e34f 633f 6373 f83f 3564 983e
00000030: 8294 58bf bf31 ed3e 951a 933f bf6a b33f
00000040: 86cb 8b3e 5d12 013e 11a1 6ebf e8fd 4fbf
00000050: 91b9 653f 0dff 8e3f 6db3 a93d dbf3 8a3c
00000060: b794 ab3e ee8f 7d3f 52d6 e4be ed75 ba3e
00000070: 8c86 91bf 2847 a0bf 39c8 e33f 7b90 babd
00000080: e9f3 19bf 7dea 4c3e 10bb 313f d389 fabe
00000090: 561e 193f 171a 72bf 96a2 4abd 3455 ce3f
000000a0: bcb6 c13f d01a 2c3f 86a1 353f 0d54 3bbf
000000b0: b916 fdbe 66b9 6f3e d4af ab3e 98ac fd3e
000000c0: b039 973f 20f7 5cbf cc24 5bbe df65 94be
000000d0: 21d6 893f 0f0e d23e 56f8 43bf a8fa 8f3e
000000e0: 4a3e a53e 5884 f13f 4291 823f 2889 bb3f
000000f0: 7512 7d3f b30d b53f 9559 4f3f 1c7a 1b3f
00000100: 40db 473f 88c8 333f 8ad9 c43f 50eb b83f
00000110: cfe1 4bbf a085 78bd a006 6c3f 867d bf3f
00000120: cd85 663e 962d 82bf e5ee c53f 763a 283f
00000130: dc24 0cbe 530c b6be 028d 8ebf 03f8 dcbc
00000140: 1ea1 2a3f 0dc8 b63f 5fe2 bb3f 9041 c13f
00000150: 3d28 e43e c66b e0be 2c78 d73d 6629 eabe
00000160: cc6a 28be 4ad3 8dbe e46c 353f 1728 f1be
00000170: df57 d6be d759 3a3f b627 913f 5e34 84bf
00000180: c538 363e e625 573f ddc6 ed3f 3d4e 773f
00000190: a564 d6be 7fac 013f cf51 c73f 3f53 b23f
000001a0: c940 d4be ab0e 9bbf 3cf0 e9be 44a7 c03f
000001b0: 2136 553f 9600 8e3f 519d 453f f939 3b3e
000001c0: 9fcf 51bf 08e9 44bd 1c40 8fbe 2e0e 0a40
000001d0: e45a 443f 725a a93e aa48 c03f e284 07bf
000001e0: b4b9 483d d593 a23e c403 08bf 0043 853e
000001f0: 3918 083f 3ef1 2ebf d167 2bbf fdd6 fd3d
00000200: c994 07bf 6f10 a7bd 8275 673f 0d31 463d
00000210: a6c7 b73d e83f 403e a61b 4b3f bef8 d23e
00000220: 0d53 0bbf 21f8 6cbf 46ba 513e 8fa6 173e
00000230: 1b2a 40bf 34d1 3f3e cdfe 8a3f 4b4d bc3f
00000240: a537 493f 4cbb 69bd b932 813c 17ab a53e
00000250: f6fa c9bd 37ed 283f bd2f 8f3f 1c64 02bf
00000260: 8bab 10bf e70c 4ebf 291b dcbe 67a0 833e
00000270: 6a1e 433e f029 b83f 5ac7 c3be a45b ef3f
00000280: 456d 32bf 9bfb cbbd a141 863f 7f2f 52bf
00000290: f394 573f e43e 3ebf 01c1 2e3e ae42 8ebf
000002a0: 970e 1cbf 0622 f3be c04e 563f 51fb 9bbd
000002b0: 9959 8b3f 58e6 91bf 8f86 af3f 6e8d bd3c
000002c0: 0091 0040 384e bb3f 3063 633f a71c 763f
000002d0: 1101 66bf 57b4 6ebf 0c60 1c3f 0966 563e
000002e0: eff5 923f 36f5 79bf d4f9 fbbe 758b debe
000002f0: b8ae 1840 fbeb 4dbf f453 a73f cfb7 303f
00000300: e3d4 9a3f 814b 733f 2ad4 c73e 37c0 b03f
00000310: de08 db3f c5bc e0bd ef94 93be 1f3a 1fbf
00000320: ae75 b23f 968b 403e dd44 bcbd d8f1 70be
00000330: 92f1 9c3f e585 863f daea 593f ffc8 26bf
00000340: 757f 573f a3d2 54bf 15d3 54bf 6113 50bf
00000350: 9452 4bbf 3cb2 5abf cc08 5bbf 8a86 7d3f
00000360: f861 a13f ccd6 7cbd 8607 e4be 6627 143f
00000370: bd7f b43f 608a f5be 5a30 183f dbc2 213f
00000380: 1475 2b3e afed b93f 3881 2fbe f856 5ebf
00000390: 36de 533f 3640 533f e5d8 5a3f 2b8b 06bf
000003a0: 1027 da3c 72f8 e4be 0b9c 9b3f 3ab3 113f
000003b0: 20aa 053f 77e3 41bf 507a 4e3f 4b91 853e
000003c0: f006 49bf 5e32 993f b046 873f e1d8 333e
000003d0: 32b8 d6be 9770 b43f 0ee0 503f 3660 493f
000003e0: 4da1 823e 9ee4 5abf 9eac 5abf 5f42 67bf
000003f0: c2de 963f 96c1 9c3f 90a7 5a3f 5bcd b3be
0.3785377 0.6720733 -0.06976345 1.0158439 -0.7584028 -0.7813849 0.66644543 -0.61046374
1.1038259 0.8879377 1.9410213 0.29763952 -0.84601605 0.46327016 1.1492487 1.4016951
0.27303714 0.12604661 -0.9321452 -0.81246805 0.89736277 1.1171585 0.08286176 0.016961982
0.33511898 0.99047744 -0.44694763 0.36418095 -1.1369185 -1.2521715 1.7795478 -0.09109589
-0.601378 0.20011325 0.6942606 -0.48933277 0.59811914 -0.9457106 -0.04947146 1.6119752
1.5133891 0.6722841 0.7094959 -0.73175126 -0.494314 0.23410568 0.33532584 0.4954574
1.181448 -0.8631458 -0.21400756 -0.2898397 1.0768472 0.4102635 -0.76550806 0.28120923
0.32274085 1.8868513 1.0200579 1.4651232 0.9885629 1.4144806 0.80996066 0.607332
0.78068924 0.7022786 1.5378888 1.4446812 -0.7964143 -0.06067431 0.9219761 1.4960182
0.22511978 -1.0170162 1.546353 0.65714204 -0.13685936 -0.35556278 -1.1136782 -0.02697373
0.66652095 1.4279801 1.4678458 1.5098133 0.4456195 -0.43832225 0.10520968 -0.4573471
-0.1644699 -0.27700263 0.7086928 -0.471009 -0.41863915 0.72793335 1.1340244 -1.0328481
0.17795093 0.84042203 1.8576313 0.9660376 -0.4187366 0.50653833 1.5571841 1.3931655
-0.41455677 -1.2113851 -0.45691097 1.5051045 0.8328572 1.1093929 0.7719317 0.18283834
-0.8195743 -0.0480738 -0.279786 2.1571155 0.7670119 0.33076817 1.5022175 -0.5293714
0.049005225 0.31753412 -0.53130746 0.2602768 0.5316196 -0.68336856 -0.66955286 0.123945214
-0.52961403 -0.08157431 0.9041368 0.048386622 0.08973627 0.18774378 0.79339063 0.412054
-0.544236 -0.92566115 0.20481214 0.14809631 -0.7506425 0.18732148 1.0859009 1.4711088
0.7860053 -0.057063386 0.015771257 0.32357094 -0.0986232 0.6598696 1.1186444 -0.50934005
-0.56511754 -0.8048844 -0.42989472 0.25708315 0.19054571 1.4387798 -0.3823803 1.8699841
-0.6969798 -0.09960099 1.0488778 -0.82103723 0.84211653 -0.74314713 0.17065813 -1.1114099
-0.6095976 -0.47486895 0.8371391 -0.07616294 1.0886718 -1.139842 1.3712939 0.023138728
2.00885 1.4633245 0.88823223 0.9613747 -0.8984538 -0.93243927 0.61084056 0.20937361
1.1481303 -0.9763979 -0.4921404 -0.43465772 2.385664 -0.804382 1.3072495 0.6903047
1.2096218 0.95037085 0.39029056 1.3808659 1.7112081 -0.10973505 -0.28824565 -0.6219806
1.3942163 0.18803248 -0.09192822 -0.23529756 1.2261221 1.0509611 0.8512398 -0.65150446
0.8417886 -0.83133906 -0.83134586 -0.8127957 -0.7942288 -0.85428214 -0.855603 0.99033415
1.2608023 -0.061728284 -0.4453699 0.5787262 1.4101483 -0.47957134 0.5944878 0.6318795
0.1674388 1.452566 -0.17139137 -0.86851454 0.8276094 0.82519853 0.85487205 -0.52556103
0.026629955 -0.447208 1.2156996 0.56914103 0.52212715 -0.7573771 0.80655384 0.26087412
-0.7852621 1.1968496 1.0568447 0.17563201 -0.41937405 1.409686 0.8159188 0.7866243
0.25513688 -0.8550509 -0.8541964 -0.9033565 1.178673 1.2246578 0.8541193 -0.3511761

l1.bias f4 [8]
00000000: 91cc 943f a818 503f c8c8 9a3f 63f4 163f
00000010: 5768 843f 24a4 213f d94c 443f f2b4 3d3f
1.1624929 0.8128762 1.2092524 0.58966655 1.0344342 0.63141084 0.7667976 0.74104226

l2.weight f4 [8, 8]
00000000: c813 e73f c705 30bf e5cb 1740 3583 9fbf
00000010: c2e1 3cbf 090e 0e40 b9a6 4e3f 2fdb cb3f
00000020: 4280 833f a1dd 3140 9c42 a6be 477d 88be
00000030: 999f 463f 6260 f4bf 2b52 a93f a3ff ee3e
00000040: 0f91 0d40 dc0d 9bbf 9e1a cd3f 4af8 6c3f
00000050: 7df4 d33f e441 a7bf 3837 edbf 9658 693f
00000060: de65 90bf b37d b53f 876e e6bd 673c f03f
00000070: 7451 0e40 c671 bc3f 11d6 02c0 1d5b 8d3f
00000080: 167d d13f 0dfb 5a3c 7f28 e43f 0d7a 99bf
00000090: 6932 b73f ad6b 1cbf b160 96bf de1e cbbf
000000a0: 5940 343e 35e2 d23f 1fce f13e a910 98be
000000b0: 5839 7abf c840 c33f 9040 2d3e 2f6b 1540
000000c0: 714a 07be a7a3 943f c639 6d3f 7f23 98be
000000d0: 33a1 af3f 9671 a83f c302 2abf de78 f6bf
000000e0: f1a4 c33e 020c 703f ae06 ed3d 8eb4 3040
000000f0: 4332 6e3f b7ff 10bf 8f65 d63f c9e4 0fc0
1.8052912 -0.68758816 2.3718197 -1.2461916 -0.7378198 2.2196066 0.8072315 1.5926265
1.0273516 2.7791522 -0.32472694 -0.2665808 0.77587277 -1.9091914 1.3228201 0.4667941
2.2119787 -1.2113605 1.6023748 0.9256636 1.6558987 -1.3066983 -1.8532476 0.91150796
-1.1281087 1.4178985 -0.1125155 1.8768433 2.2237215 1.4722221 -2.0443156 1.104343
1.6366298 0.013365519 1.7824858 -1.1990372 1.4312259 -0.611018 -1.1748258 -1.5868795
0.17602672 1.6475283 0.4722757 -0.2970021 -0.9774375 1.5254145 0.1691916 2.334667
-0.13211991 1.1612443 0.9266628 -0.2971458 1.3721069 1.3159664 -0.66410464 -1.9255636
0.38211778 0.9376832 0.1157354 2.7610202 0.93045443 -0.5664019 1.6749743 -2.248339

l2.bias f4 [8]
00000000: 51bb 6b3f 9381 ec3e 7dd1 5b3f b1aa 8b3e
00000010: a989 233f 3a86 72be 0e76 7cbe d796 833f
0.920827 0.46192607 0.8586653 0.27278665 0.6388193 -0.23684016 -0.2465441 1.0280408

l3.weight f4 [37, 8]
00000000: 1388 183c a33d 60be 0130 8ac0 15d1 ba3c
00000010: 2715 67be 9209 f4be bf98 2b3f cc17 ccbc
00000020: 735d dfbd 5d5f 6dc0 cc7c f03e 8807 1f3f
00000030: cf0f a7bf a94e 0ebf 72ea 43be 957f b33d
00000040: 24ab ec3e d532 d8bf ec5c 02c0 3588 24bf
00000050: 8c8c 103f bb75 f039 e986 1f3f 248f 66bf
00000060: b322 6cbf 15de 393f 981f 723e 95e0 7cbf
00000070: 6864 cfbe 7b79 45c0 40ba 92bf 8a7a 883f
00000080: d1a5 3ac0 46b8 483f 2f7b fdbe c2f1 e23d
00000090: 3af7 573d d0aa ebbf b966 0e3f fabd 943e
000000a0: 682e 5d3d 2a54 cd3e 46bb d13e 3280 42c0
000000b0: 366f 143f e2e7 3abf 3b88 78c0 94e5 013f
000000c0: 6f7b 3bbf 9345 87bf 8112 dabd 7a84 933e
000000d0: c41c 573f 16e8 16c0 4ee5 383f d012 aebd
000000e0: 2ad9 b2bf b5fc e0be 1de5 eabd a4c4 2b3f
000000f0: 214d c4be e27e 69be ec35 0bbd b196 5abe
00000100: 9bc9 3abd 53c6 af3d 74b1 dabe a03c d9be
00000110: 0f7d 87be e889 3dbf b100 92bd bbcf f03e
00000120: 7e03 523f 00b0 91bf f7f1 9f3e 7287 49bf
00000130: de64 0abe 51b9 d13d 353f 01c0 c2e4 fdbf
00000140: 192d 16c0 b406 7cbf 9d4d 483f 7e59 fb3e
00000150: ca7f d7be 5d7b 41c0 bf3a 0fbf 3bad 293f
00000160: b293 743e 918e 3f3f 5da0 033e 7e43 3ac0
00000170: 3a01 55c0 5777 9bbf eef6 8ec0 7409 9f3f
00000180: db2a 0bc0 9242 093f ae91 043f 2b69 4a3f
00000190: 4a73 3dc0 56d4 53be 2f8c f4bf 34ea 77be
000001a0: a005 a63e aba9 0a3e e04a e5bf 1073 7ebf
000001b0: 56df 28c0 eecc f23e c289 55bf 4d4c 633e
000001c0: f3c8 82bf 4ca7 df3e f4ac 15c0 9863 d9bd
000001d0: d227 4dc0 0f1c da3e b499 8f3d a375 8b3e
000001e0: 381d de3d 7b4e 9e3e 6a3c 82be e609 86bf
000001f0: 4cb2 063f 37bf 9dbe bc86 1bbe f6c1 68be
00000200: 379d 31bf 0d9e a83f 9aec e1be 2151 86c0
00000210: 3e5a 783f 0786 c8bf d63e ab3d cd7c da3e
00000220: b2fc 8b3d 9716 18bf a186 4d3f a691 03c0
00000230: 4a96 9a3f ea6c 5fc0 08e4 6a3d 2ca7 773e
00000240: e29a 1d3f 7e5f e13d a17a 2e3f 5725 16c0
00000250: ca73 053f 1eab c9bd f2b2 81c0 371f 00c0
00000260: e748 eb3d 48a0 ba3f d4fc 3bc0 be4a 19c0
00000270: 6f9f a6bf fe10 813d 36ab 16c0 6773 683e
00000280: 0c3a 353e e7d8 1cbf d4bf 3ebe b250 5f3e
00000290: 9774 76c0 b25b 083f 2050 48bf 2d96 99bf
000002a0: c6da f0be 5f0e 843f c8b4 f0bf 44a6 183f
000002b0: 7afa 09c0 6504 d33e f77d 90c0 7333 e2be
000002c0: 83d7 e03d d1f2 a0bf 8dac 843f bf86 8fbe
000002d0: f745 823e 9a5d 94bf 6246 07c0 ece2 89bd
000002e0: 9cf5 23bf 3239 1dc0 1c23 b8bf 4de9 813f
000002f0: 3e79 19c0 c782 2e3f e58f e3be bb48 0dbf
00000300: a582 623f de31 4cbf 8a65 dfbf d07d 71c0
00000310: 7fbd bbbf a205 833f 8138 40c0 4924 5cbe
00000320: 4846 483e 5b95 3abd 4df7 ff3e 3403 123d
00000330: 128f 3fc0 7bd4 0ebe 2068 83c0 7392 cc3e
00000340: e127 7f3c 71e4 bd3f 8144 8dbe 7f61 0ec0
00000350: 03b4 69bf c6ad 353f 7df9 3bc0 0eef eebf
00000360: c66a 64be c189 90be 3d06 ae3d cfdf 0d3f
00000370: c11d 67be 8c73 84be 9c22 9cbd 1791 0cc0
00000380: c79b ffbe a845 ad3e 3f18 1dc0 21ac 713f
00000390: 74bc bcbf 1e63 033f 9e17 9bbf 192a 53c0
000003a0: bf0b b3bf 3c86 003f be31 5d3f be04 6ebc
000003b0: 8b48 3d3f 2950 c0bf f629 89bf 737a 86be
000003c0: 62f8 3cc0 a529 bfbe cb6b ccbf c9c0 2c3f
000003d0: d480 32c0 7d77 70bd cc63 413f beee 313e
000003e0: ee7e ca3e 7131 0dc0 e15a cc3d 5fca 6dc0
000003f0: 590c 5d3f 76e4 d2be 93cc 473f 6a73 0abf
0.009309786 -0.21898513 -4.31836 0.022804776 -0.22566663 -0.47663552 0.6702995 -0.024913691
-0.10906496 -3.7089455 0.46970212 0.62120867 -1.3051699 -0.55588776 -0.19132403 0.08764569
0.4622432 -1.6890513 -2.0369215 -0.64270335 0.5646446 0.00045864083 0.6231523 -0.90062165
-0.92240447 0.72604495 0.23644865 -0.98780185 -0.4050629 -3.0855396 -1.1463089 1.0662396
-2.9163706 0.7840618 -0.49508044 0.11081268 0.052726008 -1.8411503 0.5562549 0.2905119
0.053999335 0.40103275 0.4096319 -3.0390744 0.57982194 -0.73010075 -3.8833148 0.50740933
-0.7323522 -1.0568107 -0.106480606 0.2881201 0.8402827 -2.3579154 0.7222489 -0.08499682
-1.3972523 -0.439428 -0.11469481 0.67096925 -0.38340095 -0.22802308 -0.03398697 -0.21346547
-0.045602422 0.08582749 -0.4271351 -0.42429066 -0.264626 -0.74038553 -0.07129038 0.47033486
0.8203658 -1.1381836 0.31239292 -0.787223 -0.1351504 0.102404244 -2.0194829 -1.9835436
-2.3465025 -0.9844773 0.7824343 0.49091715 -0.42089683 -3.0231545 -0.55949014 0.66279954
0.23884466 0.74826914 0.12854142 -2.9103694 -3.3281999 -1.2145795 -4.467643 1.242476
-2.1744907 0.53617203 0.5178479 0.79066724 -2.9601617 -0.20686468 -1.9105281 -0.24210435
0.32426167 0.13541286 -1.7913475 -0.9939432 -2.6386313 0.47421974 -0.83413327 0.22197075
-1.0217575 0.43682325 -2.3386812 -0.10614699 -3.2055554 0.42599532 0.070117384 0.27238187
0.10845417 0.3091925 -0.25436717 -1.0471771 0.5261581 -0.30809948 -0.15188116 -0.2273024
-0.69380516 1.3173233 -0.44125825 -4.1974034 0.970127 -1.5665902 0.083615944 0.4267334
0.06835307 -0.5940947 0.8028355 -2.0557647 1.2077115 -3.4910226 0.057346374 0.24184865
0.6156446 0.11004542 0.68155867 -2.346029 0.52129805 -0.09847091 -4.053094 -2.0019052
0.114885144 1.4580164 -2.9373064 -2.395187 -1.3017405 0.06302069 -2.3542 0.22700273
0.17697924 -0.61268467 -0.18627864 0.21808127 -3.850866 0.53264916 -0.7824726 -1.1998955
-0.4704191 1.0316886 -1.880517 0.596287 -2.1559129 0.4121429 -4.5153766 -0.44179878
0.109786056 -1.2574102 1.0365158 -0.2803249 0.25444004 -1.1591065 -2.1136708 -0.06732735
-0.64046645 -2.456616 -1.4385715 1.0149323 -2.398025 0.681683 -0.4444572 -0.551891
0.884806 -0.7976359 -1.7452862 -3.773304 -1.4667205 1.0236094 -3.0034487 -0.21498217
0.1955806 -0.045552593 0.49993363 0.035647586 -2.9931073 -0.13948242 -4.1064606 0.39955482
0.015573473 1.483534 -0.27591327 -2.2247007 -0.912903 0.7096828 -2.9371026 -1.8666704
-0.22306356 -0.28230098 0.084972836 0.5541963 -0.22569944 -0.25869405 -0.07623789 -2.1963556
-0.49923536 0.33842206 -2.4546049 0.9440327 -1.4745011 0.51323116 -1.2116582 -3.2994444
-1.398796 0.50204825 0.86404026 -0.014527498 0.73938817 -1.5024463 -1.071593 -0.26265296
-2.95266 -0.3733646 -1.5970396 0.67481667 -2.789113 -0.058707703 0.755429 0.17376229
0.39549965 -2.2061427 0.09978271 -3.7154768 0.86346966 -0.41189927 0.7804653 -0.5408236

l3.bias f4 [37]
00000000: bc91 25bf 7203 8a3e 6688 a73c 0c8d 423d
00000010: a2bf 03be 3abb 4dbe 31e9 7abe cb29 2fbf
00000020: d944 383e d4e5 8b3e 7cda 2e3e c955 e03e
00000030: 1f0f 91be ef64 c53d 4e8a 93bc b307 0fbf
00000040: 67bf fbbd c672 ebbc 8a39 343e 1d1d 5b3d
00000050: 4fdb 55be 275e f33e f75a a1be 2b55 93be
00000060: eeab 033d a4cc e53d 90bf e9bd 22eb c8be
00000070: 02ae 643d 6330 15bf b386 4cbe 820d 7cbc
00000080: 1398 0c3c 6848 3b3f f9c4 433d be65 5d3e
00000090: e007 9e3e
-0.646755 0.26955754 0.020450782 0.047497794 -0.12866071 -0.20090953 -0.24503018 -0.68423146
0.17995013 0.27323782 0.17075533 0.4381545 -0.2833185 0.09638392 -0.018010285 -0.55871123
-0.122923665 -0.028741252 0.17600074 0.05349456 -0.20884441 0.4753277 -0.31514713 -0.28775916
0.032146387 0.11220673 -0.11413491 -0.39241892 0.05583001 -0.5827696 -0.19973259 -0.01538408
0.008581179 0.7315736 0.04779527 0.21620843 0.30865383
